test/save_model.pth (torch, 41543 bytes, 9 tensors)

gru.weight_ih_l0 f4 [96, 1]
0	0xbf1c09ef	-0.6095266
1	0xbf0ab3cc	-0.541806
2	0xbf93f00e	-1.1557634
3	0x3e501318	0.20319784
4	0xbf5dec9d	-0.8668917
5	0xbe08451d	-0.13307615
6	0xbda02355	-0.07819239
7	0xbee258fe	-0.4420852
8	0xbefe4460	-0.4966154
9	0xbf2a8d0e	-0.6662148
10	0xbf1e0a53	-0.61734504
11	0x3f258130	0.6465025
12	0xbecfc89f	-0.4058275
13	0x3db006d4	0.08595052
14	0xbdaeca70	-0.08534706
15	0x3f334a31	0.7003508
16	0xbeec0c6d	-0.4610323
17	0x3ef4941c	0.47769248
18	0xbea3155c	-0.31852233
19	0xbe297f18	-0.16552389
20	0xbe58d006	-0.21173105
21	0xbf7fc2e3	-0.9990675
22	0x3dfbd289	0.12296016
23	0xbee05ce6	-0.43820876
24	0xbdb5d375	-0.08878223
25	0xbf3472d2	-0.704877
26	0x3ef5a2f7	0.47975895
27	0xbda72036	-0.081604406
28	0xbe276f36	-0.16351017
29	0x3ed17f4d	0.40917435
30	0xbef5b8f5	-0.47992674
31	0xbf0608ea	-0.5235735
32	0xbfbd2e49	-1.477975
33	0xbea8573f	-0.32879063
34	0xbf251dbb	-0.6449849
35	0x3f9cbc8b	1.2245039
36	0xbf01dd20	-0.50728035
37	0xbec07544	-0.37589467
38	0xbe2387f6	-0.15969834
39	0x3c8554f0	0.016275853
40	0x3ced9bf6	0.029005032
41	0xbef877d1	-0.48528913
42	0xbf607aec	-0.87687564
43	0x3f7a61b1	0.97805315
44	0xbede3697	-0.43401024
45	0x3fd3d9e0	1.6550865
46	0xbed58eee	-0.4171061
47	0x3e0c5091	0.13702609
48	0x3e97f846	0.29681605
49	0x3f2542eb	0.64555234
50	0xbc6122b3	-0.013741183
51	0x4006c3ba	2.1056962
52	0xbfc39e82	-1.5282748
53	0xbe2cfbe2	-0.1689296
54	0x3f2cf678	0.6756358
55	0x3e347ca7	0.17625676
56	0x3ea0c028	0.31396604
57	0x3e2719b6	0.16318402
58	0x3e074d73	0.13213138
59	0xbe5d86ec	-0.216335
60	0x3ef4dc72	0.47824436
61	0x3f6acae9	0.91715866
62	0xbfaec26f	-1.3653086
63	0xbf180b09	-0.5939184
64	0xbed080b5	-0.40723196
65	0xbec2636a	-0.37966472
66	0xbf0a8463	-0.54108256
67	0xbdecd0bb	-0.1156325
68	0x3f01df6f	0.5073156
69	0x3ea7be1c	0.3276223
70	0xbdd65850	-0.10466063
71	0xbe9c57b7	-0.3053567
72	0x3ecf75d7	0.40519592
73	0xbeff17a8	-0.49822736
74	0xbeb97c6c	-0.3622774
75	0x3e14c8b7	0.14529692
76	0xbe978b3f	-0.29598424
77	0xbb40b666	-0.0029405593
78	0xbd85cd31	-0.06533278
79	0xbeacec19	-0.33773878
80	0xbeddd172	-0.43323857
81	0x3d5f942f	0.05458468
82	0x3ed56ac5	0.4168302
83	0xbd8e7344	-0.06955579
84	0x3e2b4b07	0.1672784
85	0xbf00df60	-0.50340843
86	0xbed62f7a	-0.41833097
87	0x3e8f1383	0.27944574
88	0x3e429ead	0.19005843
89	0x3ee4ef26	0.44713706
90	0xbe64e415	-0.22352631
91	0x3ec9bf40	0.39403725
92	0x3ea5e615	0.324021
93	0xbdc224e4	-0.094796926
94	0x3e9a3c43	0.301241
95	0x3ede4b5e	0.43416876

gru.weight_hh_l0 f4 [96, 32]
0	0xbedc6669	-0.43046883
1	0xbe7b323d	-0.24530883
2	0xbdbad2f0	-0.091222644
3	0xbef25a76	-0.4733464
4	0xbd99f2cb	-0.07517012
5	0x3ea6cc3c	0.32577693
6	0x3e4bf929	0.19919266
7	0x3e3c9db1	0.1841953
8	0xbd2d06ce	-0.042242818
9	0xbe0203da	-0.12696782
10	0xbec90c2b	-0.39267096
11	0x3efc4ac0	0.4927578
12	0x3dbfe324	0.093694955
13	0xbdb916d0	-0.09037554
14	0xbe95b9d5	-0.2924334
15	0x3d56eb9e	0.052470796
16	0x3ea76519	0.3269432
17	0xbc9813b9	-0.018564092
18	0x3e963e2d	0.2934431
19	0xbf963849	-1.1735927
20	0xbdd6828a	-0.10474117
21	0xbe2e5a7a	-0.17026702
22	0xbf3c8eb8	-0.7365527
23	0xbe2add73	-0.16686039
24	0xbe830380	-0.25588608
25	0xbe757927	-0.23971997
26	0x3bd57d06	0.006515148
27	0x3da7bb10	0.08189976
28	0x3e9ab403	0.30215463
29	0x3da95f89	0.08270175
30	0xbe4cab7b	-0.1998729
31	0x3ecbaf34	0.39782107
32	0xbed4bf00	-0.4155197
33	0xbec98446	-0.3935873
34	0xbe2b4b5d	-0.16727968
35	0xbd4acd46	-0.04951217
36	0xbd870783	-0.065932296
37	0x3e8d6bd7	0.27621338
38	0x3e842f83	0.258175
39	0xbd38f8ac	-0.045159027
40	0xbd71ae14	-0.059003904
41	0xbe284e1c	-0.16436046
42	0xbd88ada4	-0.06673744
43	0x3eefd484	0.46841824
44	0x3ba2ee49	0.0049722535
45	0xbd8829bc	-0.06648585
46	0xbe08c60a	-0.13356796
47	0x3bdbbda0	0.0067059547
48	0x3e9e0a46	0.30867213
49	0x3bdc4763	0.006722377
50	0x3eb18461	0.3467131
51	0xbf63e2df	-0.8901805
52	0xbda7114a	-0.081575945
53	0xbe67dc41	-0.22642614
54	0xbed62e22	-0.41832072
55	0xbcb7a5fa	-0.022418011
56	0xbd5cd87e	-0.0539174
57	0xbd4fc103	-0.05072118
58	0xbe8daecc	-0.27672422
59	0xbd9cf338	-0.07663578
60	0x3e4f4044	0.20239359
61	0x3d408096	0.04699763
62	0xbe0fe2fe	-0.14051434
63	0x3ea4b267	0.3216736
64	0xbe9cbffc	-0.30615222
65	0xbe328a2e	-0.17435524
66	0xbd5bde4a	-0.05367879
67	0xbeec6ae7	-0.4617531
68	0xbe1f1e8d	-0.15538998
69	0x3f07137d	0.5276411
70	0x3ea31ced	0.31858006
71	0xbe551bf4	-0.20811445
72	0xbddd188c	-0.107956976
73	0xbe9ee7e1	-0.31036285
74	0xbda5e3a8	-0.081000626
75	0x3f31211d	0.6919115
76	0xbd37d4a8	-0.04488054
77	0x3ec4b881	0.38422015
78	0xbeb958be	-0.36200517
79	0x3f60b298	0.8777251
80	0xbd35f290	-0.04442078
81	0x3e8d86f8	0.27642035
82	0x3ef27d93	0.4736143
83	0xbfd7d88f	-1.6862963
84	0xbecc7d12	-0.3993917
85	0xbe7a37f2	-0.24435404
86	0xbf80ef9d	-1.0073124
87	0xbe97bb6a	-0.29635173
88	0xbe69730e	-0.22797796
89	0xbe350e72	-0.17681292
90	0xbf1d087e	-0.61341083
91	0x3e15dcbb	0.14634983
92	0xbe502ccc	-0.20329589
93	0x3f2cb88d	0.674691
94	0xbe75b266	-0.23993835
95	0x3f16b11b	0.5886399
96	0xbe0c72d5	-0.1371568
97	0xbd1f46f1	-0.038886014
98	0xbe7dde9c	-0.2479195
99	0x3e394aea	0.18094984
100	0x3e36383c	0.17794889
101	0x3de9afec	0.114105076
102	0x3ce30e7a	0.027716864
103	0x3e8c4def	0.2740321
104	0x3ed53995	0.41645494
105	0xbc1bab75	-0.009501328
106	0xbd8217f8	-0.06352228
107	0x3e55ec44	0.2089091
108	0xbdb980e3	-0.09057786
109	0xbe239fd0	-0.15978932
110	0x3d94c060	0.07263255
111	0x3f545b35	0.8295167
112	0x3ed0ff46	0.40819758
113	0xbf2f95cf	-0.68587965
114	0xbe453fef	-0.1926267
115	0x3d3d12e7	0.046160605
116	0x3c7ec760	0.015550464
117	0xbe615977	-0.22006784
118	0x3d306d86	0.0430732
119	0x3e1ec6df	0.15505551
120	0xbf23f04a	-0.64038527
121	0x3e8b9a34	0.27266085
122	0x3d902810	0.07038891
123	0xbec56ee8	-0.38561177
124	0x3d78a8f1	0.06070799
125	0x3ed3d986	0.41376895
126	0x3c20ae00	0.00980711
127	0x3c38d3ea	0.011280993
128	0xbdf8ca24	-0.1214793
129	0xbecb6cc3	-0.39731416
130	0xbe04e142	-0.12976554
131	0xbe8dc342	-0.27688032
132	0xbd0cafb3	-0.034347247
133	0x3e4356cc	0.19076079
134	0x3e7bab33	0.24577026
135	0xbdc5d375	-0.09659473
136	0xbe021eb4	-0.12707025
137	0xbd07bcfe	-0.03313922
138	0x3dd1e326	0.10248403
139	0x3ee2ab6f	0.44271418
140	0xbe31f00e	-0.1737673
141	0x3dc5f724	0.09666279
142	0xbd47d6f7	-0.04878899
143	0x3e177cdd	0.14793725
144	0x3e654573	0.22389774
145	0x3da29e5c	0.07940361
146	0x3ebba634	0.3665024
147	0xbf1b92e8	-0.60771036
148	0xbd261bec	-0.040553972
149	0xbc512e5b	-0.0127674
150	0xbeda9d7c	-0.42698276
151	0xbdb6f9c7	-0.0893436
152	0xbe80084d	-0.25006333
153	0x3d3e572f	0.046469864
154	0xbec30a54	-0.38093817
155	0x3eb84da6	0.3599674
156	0xbc3cdf9b	-0.011527921
157	0x3e18d5c7	0.149253
158	0xbe3e9184	-0.18610197
159	0x3e95015a	0.29102594
160	0xbe0efc6d	-0.1396348
161	0xbe7626b5	-0.24038203
162	0xbbb57f67	-0.005538869
163	0xbe174584	-0.14772612
164	0x3dd001d4	0.10156599
165	0x3e9a1efd	0.30101767
166	0xbe19081b	-0.14944498
167	0xbe154bb7	-0.14579664
168	0x3dd3aaba	0.10335298
169	0xbe62a860	-0.22134542
170	0x3e42422b	0.18970554
171	0x3d0bbe28	0.034116894
172	0x3cb4101c	0.021980338
173	0x3c9abf42	0.018890027
174	0x3df7be40	0.12096834
175	0x3eff90b4	0.49915087
176	0xbeac716d	-0.33680287
177	0xbdcebe8e	-0.10094939
178	0x3ea18180	0.31544113
179	0xbdf240bb	-0.118287526
180	0xbe1b5e72	-0.15172747
181	0xba803bf2	-0.000978349
182	0xbe516224	-0.20447594
183	0x3d0d103d	0.034439314
184	0x3f0f9354	0.5608418
185	0xbdaee9cc	-0.08540687
186	0x3e263ccb	0.16234128
187	0xbe54d287	-0.20783435
188	0xbbab579f	-0.005228951
189	0xbe2267ca	-0.15859905
190	0xbe254979	-0.16141309
191	0x3e840d5d	0.25791445
192	0xbe093ecd	-0.13402863
193	0xbe6a448d	-0.22877713
194	0xbdf9fc6c	-0.12206349
195	0x3cad5bb4	0.021161892
196	0xbc2873b2	-0.01028149
197	0x3dc46a11	0.09590543
198	0xbd3a2dac	-0.045453712
199	0xbddbd5c5	-0.10734133
200	0xbcf4f621	-0.02990252
201	0xbe328030	-0.17431712
202	0xbe31dc5b	-0.17369215
203	0x3eaa7edc	0.3329991
204	0x3d043b12	0.032282896
205	0x3e9aaa12	0.30207878
206	0xbe52f00f	-0.20599388
207	0xb9f9c860	-0.00047642272
208	0xbd29acf8	-0.04142472
209	0xbb868005	-0.0041046166
210	0x3ed21622	0.4103251
211	0xbd0ad2af	-0.03389233
212	0x3ae1e2f4	0.0017233775
213	0xbe49f37d	-0.1972179
214	0xbf1c3739	-0.61021763
215	0x3d23287a	0.039833523
216	0x3ea88ab7	0.3291833
217	0x3dc91362	0.0981815
218	0x3d9e015e	0.077151045
219	0x3e36222b	0.17786472
220	0xbc791abe	-0.01520413
221	0x3e01e5b6	0.12685284
222	0x3e413cee	0.18870899
223	0x3e83912e	0.256967
224	0x3ec7a1f6	0.38990754
225	0x3d911675	0.070843615
226	0x3e15d2e0	0.14631224
227	0xbda159bb	-0.07878443
228	0x3dd0017a	0.10156532
229	0xbdc1f475	-0.094704546
230	0xbe37989e	-0.17929313
231	0x3e69fc5a	0.2285017
232	0xbe04a730	-0.12954402
233	0x3db20c27	0.08693724
234	0x3f287460	0.65802574
235	0x3e785c7d	0.24254031
236	0x3ea494e1	0.32144836
237	0x3d850dad	0.06496749
238	0x3e545df8	0.20738971
239	0x3eff93bb	0.49917397
240	0xbe640391	-0.22266985
241	0xbe7836af	-0.2423961
242	0x3defde68	0.117123425
243	0x3d8d4f03	0.06899836
244	0x3c0e51fe	0.008686541
245	0xbbf3575c	-0.0074261855
246	0xbf170206	-0.5898746
247	0x3e207a67	0.15671693
248	0x3e1ad827	0.15121518
249	0xbe151ade	-0.1456103
250	0x3db242dd	0.087041594
251	0xbe76fb4d	-0.24119301
252	0xbeebd30b	-0.4605945
253	0xbd20a2b5	-0.03921767
254	0xbe5c9cd9	-0.21544208
255	0xbe983a9a	-0.2973221

gru.bias_ih_l0 f4 [96]
0	0xbebd97fe	-0.37030023
1	0xbe5be88f	-0.21475433
2	0xbfad9e3d	-1.3563915
3	0xbd2c8c5b	-0.04212604
4	0xbea53338	-0.3226564
5	0xbe8f6373	-0.2800556
6	0xbe65fa88	-0.22458851
7	0x3c8d9152	0.017281208
8	0xbf764bb2	-0.9620925
9	0xbe965e9c	-0.29369056
10	0xbe8f9cdc	-0.28049362
11	0x3e2e09b3	0.16995887
12	0xbd7d6d53	-0.061871838
13	0x3e55f24d	0.20893212
14	0xbe51a779	-0.20474042
15	0x3e9ca623	0.30595502
16	0x3e7ebbc2	0.24876311
17	0x3e53e7b1	0.20693852
18	0xbd2fc2c1	-0.04291034
19	0x3c522111	0.012825266
20	0xbdba84d9	-0.0910737
21	0xbfb4a077	-1.411147
22	0xbf0a67b7	-0.54064506
23	0xbf08a592	-0.5337764
24	0xbeb75652	-0.35808045
25	0xbf3f102a	-0.7463404
26	0x3e529c38	0.20567405
27	0xbe1cf353	-0.15327196
28	0xbe7d6ad0	-0.24747777
29	0xbbf676f0	-0.0075215027
30	0xbea60bbd	-0.3243083
31	0xbeb1a0ad	-0.34692898
32	0xbf90ce49	-1.1312953
33	0xbeec09e0	-0.46101284
34	0xbf121a8e	-0.5707177
35	0x3f931388	1.1490335
36	0xbe6a4c3d	-0.22880645
37	0x3eb76be6	0.35824507
38	0xbdf163cd	-0.117866136
39	0x3e379f18	0.17931783
40	0xbc913b4c	-0.01772847
41	0xbf0aed40	-0.54268265
42	0xbedf7581	-0.43644336
43	0x3f8629b5	1.0481478
44	0x3e228a2d	0.15873022
45	0x3fc328a5	1.5246779
46	0x3e1b8021	0.15185596
47	0x3e67e9c7	0.22647773
48	0x3f077dcd	0.5292633
49	0x3f304bd7	0.6886572
50	0xbe074af4	-0.13212186
51	0x40145636	2.317762
52	0xbfca5840	-1.5808182
53	0xbd8ab238	-0.06772274
54	0x3f546e9e	0.8298129
55	0x3f23b16f	0.6394262
56	0x3e0c27da	0.13687077
57	0x3be0e074	0.0068626944
58	0x3f42c571	0.7608252
59	0x3f1a2694	0.60215116
60	0xbe58ff6c	-0.21191186
61	0x3f423642	0.7586404
62	0xbf8f5262	-1.1197016
63	0xbea9e3fe	-0.33181757
64	0x3e14a45a	0.1451582
65	0x3ddfc416	0.10926072
66	0x3e47f551	0.19527175
67	0x3e00497d	0.12528034
68	0xbe279a93	-0.16367559
69	0xbdc9c129	-0.098512955
70	0x3d188241	0.037233595
71	0x3dd3905d	0.103302695
72	0xbe1e521e	-0.15461013
73	0x3e1130dc	0.14178795
74	0x3ddc414b	0.10754641
75	0xbe07ddee	-0.13268253
76	0x3d159ef8	0.036528558
77	0x3d8a9b59	0.067679115
78	0x3c8e80ba	0.017395366
79	0x3e4956b1	0.19661976
80	0xbcbca2c9	-0.02302684
81	0xbe2dc1e8	-0.169685
82	0xbdb4805d	-0.08813546
83	0x3c2e553b	0.010640438
84	0xbd107357	-0.035266247
85	0x3e458e2b	0.19292514
86	0x3e761f61	0.24035408
87	0xbdcf1d5b	-0.10113021
88	0xbdc0a041	-0.09405566
89	0xbe24cc6a	-0.16093603
90	0x3df9f7f4	0.122054964
91	0xbd6444bb	-0.05572961
92	0xbe327242	-0.17426398
93	0x3d0dc085	0.03460743
94	0xbdaae2f5	-0.0834407
95	0xbe19ed38	-0.15031898

gru.bias_hh_l0 f4 [96]
0	0xbf22d041	-0.6359902
1	0xbe659f8c	-0.22424144
2	0xbf936f6f	-1.1518382
3	0x3e633090	0.22186494
4	0xbf21937b	-0.6311566
5	0xbe7df881	-0.24801828
6	0xbedb9658	-0.4288814
7	0xbe5d4515	-0.21608384
8	0xbf30b3bb	-0.69024247
9	0xbe87a32a	-0.26491672
10	0xbe456df7	-0.1928023
11	0x3e38f5ff	0.1806259
12	0xbdb068e0	-0.08613753
13	0x3e2f6cda	0.17131367
14	0xbda5255c	-0.08063766
15	0x3ecfdbf7	0.40597507
16	0xbd47a8db	-0.048745017
17	0x3e297dcb	0.16551892
18	0xbd502b03	-0.05082227
19	0xbcea5142	-0.0286032
20	0xbeb4d534	-0.3531891
21	0xbfb124a9	-1.3839313
22	0xbef42568	-0.4768479
23	0xbf087ecd	-0.5331848
24	0xbe0964c7	-0.1341735
25	0xbf2fcc00	-0.68670654
26	0x3e237ce8	0.15965617
27	0xbe1b6901	-0.15176775
28	0xbe0488b6	-0.12942776
29	0x3dc90a44	0.09816411
30	0xbe04ef8a	-0.12982002
31	0xbe5cdf70	-0.2156961
32	0xbf7bcbbb	-0.98357743
33	0xbef9e989	-0.48810986
34	0xbf38be55	-0.72165424
35	0x3f8f0487	1.1173257
36	0xbe9404a0	-0.2890978
37	0x3d86dbe4	0.065849096
38	0xbb14a4d0	-0.0022681244
39	0x3e2f792a	0.17136064
40	0x3c99cd25	0.018774578
41	0xbf4db3e1	-0.803526
42	0xbecb2b13	-0.396813
43	0x3fa4fdc7	1.2889947
44	0x3c8b5614	0.017008819
45	0x3fa1dbbb	1.2645181
46	0x3e468adc	0.19388908
47	0x3e3f4fa5	0.18682726
48	0x3f23fd91	0.64058787
49	0x3f37d18e	0.7180413
50	0xbdbec97f	-0.09315776
51	0x400ac8ac	2.168498
52	0xbfcb6036	-1.5888736
53	0xbe1d5926	-0.15366039
54	0x3f801e90	1.0009327
55	0x3f1c06f7	0.6094813
56	0x3e886ded	0.26646367
57	0x3e779aa0	0.24180079
58	0x3f2bf61e	0.6717242
59	0x3f2e6650	0.68124866
60	0xbea290ad	-0.31751004
61	0x3f0d10ec	0.55103946
62	0xbf5cf5d6	-0.86312616
63	0xbf16a32f	-0.5884275
64	0x3e04292e	0.12906334
65	0x3e0d0f91	0.1377547
66	0x3c3b36f1	0.011426673
67	0xbcee892b	-0.029118141
68	0xbdeb1fdb	-0.11480685
69	0xbdc1c4b6	-0.09461348
70	0x3bf17066	0.0073681353
71	0x3d50cee4	0.050978556
72	0x3d040e08	0.032239944
73	0x3e153059	0.14569224
74	0x3da4175a	0.080122665
75	0x3ddf1f2a	0.10894616
76	0x3e5c1442	0.21492103
77	0xbddc7f06	-0.10766415
78	0x3d8c240c	0.06842813
79	0x3d6fe27f	0.058565613
80	0x3e991cd1	0.29904798
81	0x3e372dd5	0.17888577
82	0xbe352137	-0.17688452
83	0x3cc1ae92	0.023642812
84	0x3d560503	0.052250873
85	0x3d3c08fa	0.045907
86	0x3d8c6b9e	0.06856464
87	0xbca36e09	-0.01994993
88	0x3d95a5ce	0.07307015
89	0xbd0daa18	-0.034586042
90	0xbd496319	-0.049166773
91	0xbe08476f	-0.133085
92	0x3d84ca5b	0.06483909
93	0x3c0ed2d1	0.008717255
94	0xbdcf375b	-0.1011798
95	0xbdd24055	-0.102661766

gru.weight_ih_l1 f4 [96, 32]
0	0xbf1ab0e1	-0.60426146
1	0xbf27a1b0	-0.6548109
2	0xbf14de98	-0.5815215
3	0x3ef893ea	0.4855035
4	0x39013e98	0.00012325717
5	0x3f0d22cc	0.5513122
6	0xbf3a7dae	-0.7284802
7	0xbfbcd88c	-1.4753585
8	0x3f0be2ea	0.5464312
9	0xbf2449b2	-0.6417495
10	0xbf84055e	-1.0314138
11	0xbf4d8e0f	-0.8029489
12	0xbf94c123	-1.1621441
13	0x3f062e5a	0.52414477
14	0x3eb685a5	0.35648838
15	0xbfe7d3b1	-1.8111478
16	0xbf6f9f99	-0.936029
17	0x3f4b157a	0.79329646
18	0x3fc7276e	1.5558908
19	0x3ff92a6c	1.9466071
20	0x3e17b884	0.14816481
21	0xbd9ce386	-0.07660584
22	0x3f558759	0.8340965
23	0x3e3e58ce	0.18588564
24	0x3fe50401	1.7891847
25	0x3ee5475e	0.4478101
26	0x3f30b49d	0.69025594
27	0x3e6182c5	0.22022541
28	0x3da787b9	0.08180184
29	0xbf505856	-0.8138479
30	0x3f736978	0.9508281
31	0x3ecf985a	0.40545923
32	0xbdafe645	-0.08588842
33	0xbd56ad0d	-0.052411128
34	0xbe587fdf	-0.21142529
35	0x3cab4ec5	0.020911584
36	0x3e833276	0.25624436
37	0xbd0e2651	-0.03470451
38	0xbdae7214	-0.085178524
39	0x3e166ad4	0.14689189
40	0x3e3cc506	0.18434533
41	0xbdd9850c	-0.1062108
42	0xbe80557c	-0.2506522
43	0x3e06bf61	0.13158943
44	0xbe51f64c	-0.20504111
45	0x3daffc3b	0.08593031
46	0x3d62eaea	0.055399813
47	0xbef3bc8f	-0.47604796
48	0x3e8952ae	0.26820892
49	0xbcb5a712	-0.022174392
50	0x3eab8b00	0.33504486
51	0xbeb916fe	-0.36150354
52	0xbe0889c2	-0.133338
53	0xbeea39b8	-0.4574716
54	0x3e79c23c	0.24390501
55	0x3e86dda4	0.26340973
56	0xbda38305	-0.07983974
57	0x3e56caf6	0.20975861
58	0xbbe8b350	-0.007101454
59	0xbeab14a9	-0.334142
60	0xbe057eb1	-0.1303661
61	0xbe58bf1a	-0.2116665
62	0x3e3a9d8e	0.18224165
63	0x3d9aa246	0.075504825
64	0xbdf03613	-0.11729064
65	0xbcad96a8	-0.021190003
66	0x3e60eded	0.21965761
67	0xbd51acc8	-0.051190168
68	0xbe3508cf	-0.17679141
69	0x3e192ea0	0.14959192
70	0x3ddc3cb1	0.107537635
71	0xbcc2c3c7	-0.023774995
72	0xbe15fc36	-0.14646992
73	0x3e6cd808	0.23129284
74	0xbdf686e9	-0.12037451
75	0x3f09f1be	0.53884494
76	0xbe083b82	-0.1330395
77	0x3e7df67f	0.24801062
78	0xbe33b59d	-0.17549749
79	0xbeded0fb	-0.43518814
80	0x3f143bb3	0.57903594
81	0x3e442a31	0.1915672
82	0xbe791cd5	-0.24327405
83	0xbe9d9616	-0.3077857
84	0xbe86d656	-0.263354
85	0x3decab1f	0.11556076
86	0x3e46bdb7	0.19408308
87	0xbe51fe08	-0.20507061
88	0xbe1e3bf5	-0.1545256
89	0xbe38a45c	-0.18031448
90	0xbd27807c	-0.040894017
91	0xbeb93c13	-0.36178645
92	0xbe60dc56	-0.21959051
93	0x3e9f9af3	0.31172904
94	0xbe0d8a1c	-0.13822216
95	0xbe24f4b6	-0.16108975
96	0x3dae6405	0.08515171
97	0x3ccf9fc2	0.025344733
98	0x3e8e5efc	0.27806842
99	0xbe97a19c	-0.29615486
100	0xbe8b7ea4	-0.27245057
101	0x3e4c825a	0.199716
102	0x3eb7dbe6	0.35909957
103	0xbe002a8f	-0.12516235
104	0xbe90bd03	-0.28269204
105	0x3dd72822	0.105057016
106	0x3e5ed7da	0.21762028
107	0x3e3135b1	0.17305638
108	0xbe50a372	-0.2037485
109	0x3e9d6d0f	0.30747268
110	0xbe8af8c7	-0.27142927
111	0xbea7fc1b	-0.3280953
112	0x3f05f27e	0.5232314
113	0x3e9e414b	0.3090919
114	0xbd390ad2	-0.045176335
115	0x3c3d03a8	0.011536516
116	0xbde31345	-0.1108766
117	0x3d43013d	0.047608603
118	0x3e8eba0f	0.27876326
119	0xbe952b15	-0.2913443
120	0xbe67f351	-0.22651412
121	0xbeb45c81	-0.35226825
122	0xbedbd964	-0.42939293
123	0xbe806dd2	-0.25083786
124	0xbda07d77	-0.078364305
125	0x3e62aaa6	0.2213541
126	0xbe92110b	-0.28528628
127	0x3d64472b	0.055731934
128	0xbea09626	-0.31364554
129	0x3b7ccd88	0.0038574655
130	0xbefe209e	-0.4963426
131	0xbe63640d	-0.22206135
132	0x3e454669	0.1926514
133	0x3a4637c8	0.00075614126
134	0xbb3ac9e0	-0.0028501675
135	0xbe1ea36c	-0.15492028
136	0x3dc2cd7e	0.09511851
137	0xbee0cd68	-0.43906713
138	0xbe891cb6	-0.26779717
139	0x3ea53884	0.3226968
140	0xbed528ff	-0.4163284
141	0x3e0bb9e3	0.13645129
142	0xbd7b5103	-0.061356556
143	0xbf4c72aa	-0.79862463
144	0x3e5b34db	0.21406882
145	0x3dd2376c	0.10264477
146	0x3b80f65c	0.0039356183
147	0xbecce259	-0.4001644
148	0xbd774164	-0.060365096
149	0xbead5640	-0.33854866
150	0x3d36af67	0.04460087
151	0xbd0e9175	-0.034806687
152	0x3e5710f2	0.21002558
153	0x3e74e426	0.23915157
154	0xbe1d8636	-0.15383229
155	0xbebb5212	-0.36586052
156	0xbe80fa7a	-0.25191098
157	0x3e0e3a53	0.13889436
158	0x3d35deaf	0.04440182
159	0x3d957970	0.07298553
160	0xbd1cf4a2	-0.038319238
161	0x3e149d87	0.14513217
162	0x3efc8a2e	0.49324173
163	0xbdd4fa48	-0.103993
164	0xbe684afc	-0.22684854
165	0x3e0ae97e	0.13565633
166	0xbd55b83e	-0.05217766
167	0x3e25b93d	0.16183944
168	0xbd31660e	-0.043310218
169	0x3e7cc5e3	0.24684863
170	0x3dac5406	0.08414464
171	0x3db7301c	0.08944723
172	0xbe7f2573	-0.2491663
173	0x3e4f149a	0.20222703
174	0x3dada541	0.08478785
175	0xbeb16d01	-0.34653476
176	0x3f1ff724	0.6248648
177	0x3de2eff9	0.110809274
178	0xbe67d4e2	-0.22639802
179	0xbde118df	-0.10991072
180	0xbd212bc8	-0.039348394
181	0x3eb2b161	0.34900954
182	0x3efb5b36	0.49093026
183	0xbde7a4c1	-0.11310721
184	0xbcb988b8	-0.0226482
185	0xbe8fcfd5	-0.2808825
186	0x3ec1def4	0.37865412
187	0xbf0b5f1a	-0.5444199
188	0x3e0da929	0.1383406
189	0x3e44582e	0.19174263
190	0x3dc43a1a	0.095813945
191	0x3d7f657a	0.062352635
192	0x3db3c55c	0.08777878
193	0x3e0938dc	0.13400596
194	0xbd081688	-0.033224612
195	0xbc7db32e	-0.015484614
196	0xbea8c562	-0.3296309
197	0xbe529a39	-0.20566644
198	0xbc2fc767	-0.010728694
199	0xbe934bf4	-0.28768885
200	0xbd8372a2	-0.06418349
201	0x3e915281	0.28383258
202	0x3ebdc6d2	0.3706575
203	0xbe5a9730	-0.21346736
204	0xbe98e3d6	-0.29861325
205	0xbe1ba852	-0.15200928
206	0xbd8fe359	-0.07025785
207	0xbf5400ea	-0.82813895
208	0xbef4bfde	-0.47802633
209	0x3eed4d3a	0.46347982
210	0x3efcba3f	0.49360844
211	0xbf162a82	-0.5865861
212	0xbd241721	-0.04006112
213	0x3d0ebb8b	0.034846824
214	0x3d1f513c	0.03889583
215	0xbe58ae3e	-0.21160218
216	0x3f3cd38f	0.7376031
217	0xbdfd90e1	-0.12381149
218	0xbd90f302	-0.070776
219	0xbe28d86b	-0.16488807
220	0xbeafd6c1	-0.34343532
221	0xbe84b0a7	-0.25916025
222	0xbd9aa22c	-0.07550463
223	0x3e5dd0f1	0.21661736
224	0xbd75a92d	-0.05997579
225	0x3dad85c2	0.08472778
226	0xbe98c88f	-0.29840514
227	0xbc8174fa	-0.01580285
228	0x3e1b44e6	0.15163001
229	0x3c46a486	0.012124186
230	0xbccc970b	-0.024974367
231	0xbe2aadb0	-0.16667819
232	0x3de0f487	0.1098414
233	0xbe6b5c83	-0.22984509
234	0x3dff5fc3	0.12469437
235	0xbe5192dc	-0.20466179
236	0xbd8aa087	-0.067688994
237	0x3e33f0de	0.17572352
238	0x3de804d6	0.113290474
239	0xbf701fca	-0.93798506
240	0xbe0f1c6a	-0.13975683
241	0x3cff3ab0	0.031155914
242	0x3e89f889	0.2694743
243	0xbe26eabf	-0.16300486
244	0xbd94964b	-0.072552286
245	0xbec91fd1	-0.39282086
246	0x3d909ec2	0.07061531
247	0x3e4e052b	0.20119159
248	0x3ec6fae4	0.3886329
249	0x3daadbc9	0.08342702
250	0x3e951a77	0.29121754
251	0xbdb3676d	-0.08759961
252	0xbde013d4	-0.10941282
253	0xbea443a1	-0.32082847
254	0x3d6b37a5	0.057426114
255	0x3d4356d6	0.047690235

gru.weight_hh_l1 f4 [96, 32]
0	0x3dc5046d	0.09619985
1	0xbe36b996	-0.17844233
2	0x3dfd903a	0.12381025
3	0x3d286219	0.04110918
4	0x3f2dfa37	0.6795992
5	0x3c9c89e3	0.019108718
6	0xbe71eea4	-0.2362619
7	0xbe9909d4	-0.2989031
8	0xbe57ce0a	-0.21074691
9	0xbedc1342	-0.42983443
10	0x3f0a8ecd	0.54124147
11	0xbef9e9a4	-0.48811066
12	0x3ba8a197	0.005146216
13	0x3f82818c	1.0195785
14	0xbe0a1b10	-0.13486886
15	0xbb757d7b	-0.0037458825
16	0xbf6738e5	-0.9032119
17	0xbe9db4e0	-0.3080206
18	0xbe18faa4	-0.14939362
19	0xbe7ac0bc	-0.24487585
20	0xbea4cbdb	-0.3218678
21	0x3fa23b18	1.2674284
22	0xbfbd6880	-1.4797516
23	0x3d3f6dda	0.046735622
24	0x3e9b3210	0.30311632
25	0x3f6116ac	0.8792522
26	0x3ea2251e	0.31668943
27	0xbe5d18a1	-0.21591426
28	0xbd096274	-0.033541158
29	0xbed1b4a2	-0.40958124
30	0x3eb28423	0.34866437
31	0x3ea1862c	0.31547678
32	0xbe108858	-0.14114511
33	0xbda649bc	-0.081195325
34	0x3ddc1ea1	0.107480295
35	0x3d620c2a	0.05518738
36	0xbe6745b5	-0.22585185
37	0xbcc6cc83	-0.02426744
38	0x3d7ec6b7	0.062201228
39	0xbc802c91	-0.01564625
40	0xbdae1e3b	-0.0850186
41	0xbe04a493	-0.12953405
42	0xbe2af6f5	-0.16695769
43	0x3a890a00	0.0010455251
44	0x3dc418f8	0.09575075
45	0x3dc7d01d	0.09756491
46	0xbdf936ee	-0.1216868
47	0xbdd34dad	-0.1031755
48	0xbeb13fdb	-0.3461903
49	0xbcd5df24	-0.026107378
50	0x3d846b82	0.06465818
51	0x3e19ef7d	0.15032764
52	0x3d1aa531	0.037755195
53	0x3e2529df	0.16129254
54	0xbe4db0de	-0.20087
55	0xbe2a1995	-0.16611321
56	0x3d9170fd	0.07101629
57	0x3e84068a	0.2578624
58	0x3d69bd87	0.057065513
59	0x3d29c710	0.041449606
60	0x3d96cf93	0.073638104
61	0xbd337511	-0.043812815
62	0x3e0aee44	0.13567454
63	0xbcc21b19	-0.023694562
64	0xbe4fab70	-0.20280242
65	0x3e71122d	0.2354209
66	0xbebceb14	-0.368981
67	0x3e0fe78f	0.14053176
68	0x3e5b9c70	0.21446395
69	0x3e0e79b2	0.1391361
70	0xbe493758	-0.19650018
71	0xbd6846f6	-0.0567083
72	0x3d0ba63f	0.03409409
73	0x3da7eb4c	0.08199176
74	0x3d6e3331	0.05815429
75	0xbe5eecc0	-0.2177
76	0xbd8ace7a	-0.067776635
77	0x3e0396d7	0.1285051
78	0x3e0722ba	0.13196841
79	0x3ea76f24	0.3270198
80	0xbdbd516a	-0.09244044
81	0xbd678c86	-0.056530498
82	0xbdea9f32	-0.11456145
83	0xbd56c846	-0.05243709
84	0xbd1bd8b3	-0.038048457
85	0x3da67a3c	0.08128783
86	0x3e5556e6	0.2083393
87	0x3c094bd7	0.008379898
88	0x3c6e9c2b	0.0145636005
89	0x3dc79261	0.097447164
90	0x3c184604	0.009294037
91	0x3e8cd049	0.2750266
92	0x3cd8fe3c	0.026488416
93	0x3e061788	0.13094914
94	0x3d7f3b2d	0.062312294
95	0x3dca30a7	0.09872561
96	0xbf1eeccf	-0.6208009
97	0x3ddc02c1	0.10742713
98	0x3b291d41	0.002580479
99	0x3f258ffe	0.6467284
100	0x3da792ea	0.081823185
101	0x3e861d37	0.26194164
102	0xbd1a1fbd	-0.037627924
103	0x3d417428	0.047229916
104	0x3daf8a17	0.085712604
105	0x3dedeb6d	0.116171695
106	0x3de24e04	0.110500365
107	0xbc3ceb91	-0.011530773
108	0xbe4fef0a	-0.2030603
109	0xbc981f16	-0.01856951
110	0x3d779566	0.06044521
111	0x3e1d068a	0.15334526
112	0x3e1a3eff	0.15063094
113	0xbd034568	-0.032048613
114	0xbd6831af	-0.056688007
115	0x3c9a2976	0.018818598
116	0xbd824e59	-0.063626
117	0x3e7f414e	0.24927256
118	0x3eb19be0	0.34689236
119	0x3e41cda2	0.18926099
120	0x3d94474d	0.07240162
121	0x3be82de6	0.0070855496
122	0x3e34fa4f	0.1767361
123	0x3e16cf7c	0.14727587
124	0x3da1814c	0.078859895
125	0x3e9801dc	0.2968892
126	0x3d8c5e9b	0.06853982
127	0x3bd8ba2e	0.006613991
128	0xbeda1c8d	-0.42599908
129	0xbd4bfaf3	-0.04979987
130	0x3de741ee	0.11291872
131	0xbe12036a	-0.14259115
132	0xbe5deed9	-0.21673144
133	0x3e04782d	0.12936468
134	0xbc42841e	-0.0118723195
135	0x3ea0ddcb	0.31419215
136	0xbe5f932a	-0.21833482
137	0xbe225634	-0.15853196
138	0xbe8139b6	-0.25239342
139	0x3dd2d9ff	0.10295486
140	0x3ddd7b15	0.10814492
141	0x3d0182de	0.031618945
142	0xbe8bc52d	-0.2729887
143	0x3e1005f6	0.14064774
144	0xbd46132d	-0.04835813
145	0xbe358841	-0.17727758
146	0xbdd2ded7	-0.102964096
147	0x3ea8554a	0.3287757
148	0xbe295e24	-0.16539818
149	0x3ebb87dd	0.36627093
150	0xbe9df9b1	-0.30854562
151	0x3c97163c	0.01844322
152	0x3d7d8a26	0.061899327
153	0x3e65fdb5	0.22460063
154	0xbe19476f	-0.14968656
155	0xbd474330	-0.04864806
156	0xbe695d84	-0.2278958
157	0x3d97abad	0.074057914
158	0x3ec93155	0.3929545
159	0xbe2ceef8	-0.16888034
160	0xbeeb5cae	-0.45969146
161	0x3e83ab3b	0.25716576
162	0xbe80f5a1	-0.251874
163	0x3e7c27a0	0.2462449
164	0x3e3c2a06	0.18375406
165	0xbe0575c6	-0.13033208
166	0xbbdb6fd4	-0.0066966806
167	0xbd9568f7	-0.07295411
168	0x3c9a8ca4	0.01886589
169	0x3db77dbe	0.0895953
170	0xb9b775b4	-0.00034992176
171	0xbe37d9a5	-0.17954119
172	0xbe7d9f23	-0.24767737
173	0x3e9e5371	0.30923036
174	0x3e0c1837	0.13681112
175	0x3e1f6a57	0.15567909
176	0xbea1227d	-0.31471625
177	0x3e37a6a5	0.17934664
178	0xbe28b408	-0.16474926
179	0xbe03522f	-0.1282432
180	0x3e3f8930	0.18704677
181	0x3e92ba6d	0.28657857
182	0x3c7ecce4	0.015551779
183	0x3e5cdf44	0.21569544
184	0xbe93f22b	-0.28895697
185	0x3e264c36	0.1624001
186	0x3e8ea5b7	0.27860805
187	0xbde223d4	-0.1104199
188	0x3dfd3ea4	0.123654634
189	0x3dc1cfb1	0.09463442
190	0xbe20c85c	-0.15701431
191	0x3e4b7ff0	0.19873023
192	0xbec9ef98	-0.39440608
193	0xbdf50b24	-0.119650155
194	0xbdb198ed	-0.086717464
195	0x3cf33ffa	0.029693592
196	0xbe886979	-0.2664297
197	0x3e66ea6f	0.22550367
198	0xbe8da29a	-0.27663118
199	0xb9b5d094	-0.00034678413
200	0x3e019127	0.12653027
201	0xbe069f76	-0.13146767
202	0x3c9d1275	0.01917384
203	0xbe0a3b7c	-0.13499254
204	0xbdf78b3a	-0.12087102
205	0xbe80d4af	-0.25162265
206	0xbe82a92e	-0.255197
207	0x3f0f6db9	0.560268
208	0xbd1f7a65	-0.038935084
209	0x3da11b02	0.078664795
210	0x3e80311e	0.25037473
211	0x3e90ef33	0.28307495
212	0xbeaecc7e	-0.3414039
213	0x3f13cbf7	0.577331
214	0x3da6098a	0.08107288
215	0xbe0d8032	-0.13818434
216	0xbd69c99f	-0.057077046
217	0x3d0dadd3	0.0345896
218	0xbe09540f	-0.13410972
219	0xbe9c6ef7	-0.3055341
220	0xbe332af5	-0.17496856
221	0xbd0b5a23	-0.034021508
222	0x3e8262c7	0.25465986
223	0xbdd521a6	-0.104068086
224	0xbe02803b	-0.12744229
225	0xbe42049f	-0.18947075
226	0x3e981b80	0.2970848
227	0xbe86896f	-0.2627673
228	0xbe938cec	-0.28818452
229	0x3d37671b	0.044776063
230	0x3e6f7e0e	0.2338793
231	0x3f08c41c	0.5342424
232	0xbd271b44	-0.040797487
233	0xbd91594f	-0.070971124
234	0x3df58a96	0.11989324
235	0xbd33a039	-0.043853972
236	0x3e2075e1	0.15669967
237	0xbe9236ff	-0.28557584
238	0xbd820365	-0.06348304
239	0xbd325d86	-0.043546222
240	0x3e244f27	0.16045819
241	0xbdddca84	-0.108296424
242	0x3e7754d5	0.24153455
243	0x3b0f9f52	0.002191503
244	0x3cf15228	0.02945812
245	0xbb4661e8	-0.003027076
246	0xbd3610e4	-0.044449702
247	0xbec00ba6	-0.37508887
248	0x3e8c2bac	0.2737707
249	0x3e419bbf	0.18907069
250	0xbed1b380	-0.4095726
251	0xbe92f36b	-0.28701338
252	0x3d9ab665	0.0755432
253	0xbe8e4cbc	-0.2779292
254	0xbddd3718	-0.10801524
255	0xbdb0df81	-0.0863638

gru.bias_ih_l1 f4 [96]
0	0x3ec75508	0.3893206
1	0xbcc8b516	-0.024500411
2	0xbd3f6534	-0.046727374
3	0xbe64f721	-0.22359897
4	0xbe61f79e	-0.22067115
5	0x3e2369c6	0.15958318
6	0xbef7b2a2	-0.48378474
7	0xbd834386	-0.064093634
8	0xbf33a3e8	-0.70171976
9	0xbedb53f0	-0.42837477
10	0xbea189a4	-0.31550324
11	0xbeca74d9	-0.39542273
12	0xbd4c5c00	-0.049892426
13	0xbd8915ff	-0.066936485
14	0xbe7066da	-0.23476735
15	0x3f1f4e71	0.6222907
16	0xbe0a0e2f	-0.13481973
17	0xbe6b890e	-0.23001501
18	0xbdcefe2c	-0.10107073
19	0x3d9e5bbb	0.0773234
20	0xbe13647a	-0.14393798
21	0x3e8ca3fb	0.27468857
22	0xbedf92ee	-0.43666786
23	0xbeb49080	-0.35266495
24	0xbda7ed2c	-0.08199534
25	0x3c0120f3	0.007881391
26	0xbe9ba0a9	-0.3039601
27	0xbdf3e087	-0.119080596
28	0xbdc979fa	-0.09837718
29	0xbe7b1a16	-0.2452167
30	0xbcbcfe71	-0.023070546
31	0xbe41d7fe	-0.1893005
32	0x3f691b22	0.91057026
33	0x3ca9ab60	0.0207116
34	0xbd92fa8f	-0.071766965
35	0xbcb9dbc2	-0.022687797
36	0x3e94b7c0	0.2904644
37	0x3d9fbc87	0.077996306
38	0xbf28b622	-0.6590291
39	0x3f33d08e	0.70240104
40	0xbd852c6c	-0.065026134
41	0xbef35d29	-0.47532013
42	0x3e892a80	0.26790237
43	0x3f32cb0b	0.6984107
44	0x3edaf681	0.42766193
45	0x3e8a4df2	0.27012593
46	0x3f15d95b	0.58534783
47	0x3ef6c57b	0.4819754
48	0x3e8c21be	0.27369493
49	0x3f0c6c8d	0.54853135
50	0xbee8e970	-0.454906
51	0x3e4e65c7	0.20156012
52	0xbcca747a	-0.024713743
53	0x3fa77c2f	1.3084773
54	0x3fc16d0e	1.5111406
55	0x3f6aa601	0.9165955
56	0x3e69ab92	0.22819355
57	0x3f955c91	1.1668874
58	0x3eb72d8b	0.35776934
59	0xbf5d57cd	-0.864621
60	0x3f1c7bb8	0.6112628
61	0x3f01da9f	0.50724214
62	0x3e27be75	0.16381247
63	0xbf0e92be	-0.5569266
64	0x3e024c21	0.12724353
65	0xbd7faa89	-0.062418494
66	0xbd6649de	-0.05622279
67	0x3d80c283	0.062871
68	0xbd7bd523	-0.06148256
69	0xbdbd0c4b	-0.0923086
70	0xbc844d33	-0.016150093
71	0x3d218fdf	0.039443847
72	0x3aab94da	0.0013090626
73	0xbc2d9be6	-0.010596251
74	0xbc81263b	-0.0157653
75	0xbca261d5	-0.01982204
76	0x3d595d54	0.05306752
77	0xbd14a5de	-0.036290996
78	0x3d188d36	0.037244044
79	0xbd90aa27	-0.07063704
80	0x3c90f6df	0.017695842
81	0xbc387e66	-0.0112606045
82	0x3c864c5c	0.016393833
83	0xbda68a39	-0.08131833
84	0xba08f264	-0.00052241073
85	0xbd8f98c0	-0.070115566
86	0x3d0ef43b	0.034900885
87	0xbd9af28c	-0.075657934
88	0xbd62233b	-0.05520938
89	0xbd39e6b1	-0.04538602
90	0x3bdb2a6c	0.0066884067
91	0xbcd0f564	-0.025507636
92	0xbd6de9a6	-0.058084153
93	0xbc74b51e	-0.01493576
94	0x3d704ca4	0.05866684
95	0x3a703639	0.0009163353

gru.bias_hh_l1 f4 [96]
0	0x3f137ad2	0.57609284
1	0xbe360f57	-0.17779289
2	0xbe6cc6ac	-0.23122662
3	0xbdc9cc87	-0.098534636
4	0xbe889428	-0.26675534
5	0xbccceac6	-0.025014292
6	0xbe8f4389	-0.27981213
7	0xbeaf30f0	-0.34217024
8	0xbf180fd9	-0.5939918
9	0xbe81cbea	-0.25350887
10	0xbeb86db8	-0.3602121
11	0xbef0ed90	-0.47056246
12	0xbd9938be	-0.07481526
13	0x3e17c2be	0.14820382
14	0xbdfb07e2	-0.12257363
15	0x3ece61f3	0.40309104
16	0xbe46785f	-0.19381855
17	0xbe3eb74d	-0.18624611
18	0xbe88df61	-0.26732925
19	0xbdac6d23	-0.08419254
20	0x3e33bebe	0.17553231
21	0x3e7fd0fd	0.24982066
22	0xbf038904	-0.51380944
23	0xbf04e18a	-0.51906645
24	0xbeda401f	-0.42627046
25	0xbe835847	-0.25653288
26	0xbea14423	-0.31497297
27	0xbee90a08	-0.45515466
28	0xbe35a962	-0.17740396
29	0xbf0e0122	-0.5547048
30	0x3e0ad879	0.1355914
31	0xbe3e9131	-0.18610074
32	0x3f403137	0.75075096
33	0xbb53da40	-0.0032326132
34	0xbd9f5a0b	-0.07780846
35	0xbe45c6c7	-0.19314109
36	0xbd5dd8f1	-0.05416197
37	0x3df45492	0.11930193
38	0xbf469b5b	-0.77580804
39	0x3efecbb0	0.49764776
40	0xbe14c966	-0.14529952
41	0xbe904a36	-0.28181618
42	0x3e397310	0.18110299
43	0x3f688061	0.9082089
44	0x3e8b7edc	0.27245224
45	0x3e727b65	0.23679884
46	0x3f3dbe85	0.74118835
47	0x3eee2d60	0.46518993
48	0x3e729344	0.2368899
49	0x3f0ed440	0.5579262
50	0xbecfe21c	-0.40602195
51	0x3d8dc8e7	0.06923085
52	0x3daea8fb	0.08528324
53	0x3fa93c01	1.3221437
54	0x3fbd48d0	1.4787846
55	0x3f42b264	0.7605345
56	0x3ee9a47f	0.45633313
57	0x3f7ac940	0.97963333
58	0x3eb148d3	0.34625873
59	0xbf8dee1e	-1.1088293
60	0x3f07fcae	0.53119934
61	0x3ed714d1	0.4200807
62	0x3e4726e2	0.19448426
63	0xbf02e4ce	-0.5113038
64	0x3d353d19	0.04424772
65	0x3e13cac7	0.14432822
66	0x3e090868	0.13382113
67	0xbe16e57c	-0.14735979
68	0x3e156411	0.14588954
69	0x3e2591f3	0.16168956
70	0x3d1c43a6	0.038150452
71	0xbe05c502	-0.13063434
72	0x3c8518d2	0.016247187
73	0x3c769dc1	0.01505226
74	0x3d5e1caa	0.054226555
75	0x3de49a02	0.11162187
76	0xbd8af799	-0.06785507
77	0x3d7cb8cc	0.061699674
78	0xbdc5f1a6	-0.096652314
79	0x3d24f308	0.040270835
80	0xbc5eb1c0	-0.013592184
81	0x3d05d16d	0.032670427
82	0x3ab14a6b	0.0013526207
83	0x3e3aa6be	0.1822767
84	0x3cefb75b	0.029262235
85	0x3da17373	0.07883348
86	0xbd1d7b40	-0.03844762
87	0x3e04db1f	0.12974213
88	0x3e038613	0.12844114
89	0x3cce7c39	0.025205718
90	0xbcc3ce01	-0.023901941
91	0x3df6fc2e	0.12059818
92	0x3d83fe23	0.06444957
93	0xbaa2e1b4	-0.0012426884
94	0xbd966b76	-0.07344715
95	0xbb71f9ec	-0.0036922647

fc.weight f4 [1, 32]
0	0xbd03cf1d	-0.03217994
1	0x3dc0440f	0.09387981
2	0xbdaf3438	-0.08554882
3	0x3dbcd8ba	0.09221025
4	0x3dcd0d3c	0.1001229
5	0xbdd591ca	-0.10428198
6	0xbdc4852f	-0.09595715
7	0xbdc21a30	-0.09477651
8	0x3db79610	0.08964169
9	0x3dcddc0e	0.10051738
10	0x3dcf09f3	0.101093195
11	0xbddbe0b5	-0.10736219
12	0xbdd000f6	-0.10156433
13	0x3dce3dcd	0.10070381
14	0x3dd60737	0.10450595
15	0x3d9d28e1	0.07673813
16	0xbde44720	-0.111463785
17	0x3dc03ff5	0.09387199
18	0xbdc2699c	-0.094928
19	0xbdd5b485	-0.10434822
20	0x3db97707	0.09055906
21	0xbd51ce5e	-0.051222198
22	0x3db96ae1	0.09053589
23	0x3dc50e5e	0.09621881
24	0xbdc42817	-0.09577959
25	0xbdbcf880	-0.09227085
26	0x3dd0e5a6	0.10200052
27	0x3daf10b2	0.08548106
28	0x3daaf676	0.0834779
29	0x3dc960ad	0.098328926
30	0xbdb598f7	-0.08867066
31	0x3dce7fd0	0.10082972
